(159571, 1)
(159571, 1)
Model: "model"
_________________________________________________________________
 Layer (type)                Output Shape              Param #   
=================================================================
 input_1 (InputLayer)        [(None, 150)]             0         
                                                                 
 embedding (Embedding)       (None, 150, 128)          2560000   
                                                                 
 bidirectional (Bidirectiona  (None, 150, 100)         71600     
 l)                                                              
                                                                 
 global_max_pooling1d (Globa  (None, 100)              0         
 lMaxPooling1D)                                                  
                                                                 
 dropout (Dropout)           (None, 100)               0         
                                                                 
 dense (Dense)               (None, 50)                5050      
                                                                 
 dropout_1 (Dropout)         (None, 50)                0         
                                                                 
 dense_1 (Dense)             (None, 1)                 51        
                                                                 
=================================================================
Total params: 2,636,701
Trainable params: 2,636,701
Non-trainable params: 0
_________________________________________________________________
     1/102124 [..............................] - ETA: 71:41:14 - loss: 0.6619 - accuracy: 1.0000
…
